pythonProject-master/pythonProject-master/data.pth (torch, 4991 bytes, 6 tensors)

l1.weight f4 [8, 54]
000000 f8 12 fa 3e 39 6c d6 bd c7 3a 90 3e c8 81 af 3e
       0.48842597 -0.104698606 0.28169844 0.34278703
000010 6b 29 71 3e 7e 7a f2 be 01 81 fe 3d e6 7f ec 3e
       0.23550956 -0.4735908 0.12426949 0.4619133
000020 48 d0 f8 bd 45 f2 4f 3e b9 79 c6 3e 1b 13 5b be
       -0.121491015 0.20307262 0.38764742 -0.21394007
000030 d7 ec 87 be 63 5d 2c be bf 6b 7f bd f5 92 46 bd
       -0.26547882 -0.16832499 -0.062358614 -0.048479993
000040 ae 8b a5 3e 6d 10 08 bf af 78 2e be 06 93 ff 3e
       0.3233313 -0.53150064 -0.17038225 0.49916857
000050 cc 7b cb 3e df 62 16 3f f9 64 c7 3e 49 1b 8d 3e
       0.39742887 0.58744615 0.38944224 0.2755988
000060 16 08 80 3e ca 25 cb 3e 84 6a 5c be 7c 55 fe bd
       0.2500617 0.39677268 -0.21525007 -0.124186486
000070 9e 4b 25 be 8d 1f 84 be b1 5e 9d be f0 ac 93 be
       -0.16142127 -0.2580532 -0.30736306 -0.28842878
000080 4d 6a 70 3e 18 6f 5b 3e 8d 40 4a be 38 8f 41 be
       0.2347805 0.21429098 -0.19751187 -0.1890229
000090 4b b9 0d be 7c f2 fe bd bf 72 22 3e 52 7d fc 3d
       -0.13840215 -0.12448594 0.15864085 0.123285905
0000a0 7d e8 dc be 8f 15 81 be a6 39 5b be 84 a9 2a be
       -0.43146124 -0.2521176 -0.2140871 -0.16666228
0000b0 fe 84 3d be d6 9f 1d be 47 af 23 3f 3d 7d ba 3e
       -0.18507764 -0.15393004 0.63939327 0.36423674
0000c0 f5 da b9 3d c2 7a c6 be aa 66 ea bd 2f 52 82 be
       0.09074966 -0.38765532 -0.11445363 -0.25453326
0000d0 7a 70 37 3e 19 76 a6 3e d3 a9 80 be 36 5a 10 3f
       0.17914 0.32511976 -0.25129566 0.5638765
0000e0 cf f7 c9 be f6 27 9a 3e 5f 9f e6 3e 0b 57 ac 3e
       -0.39446875 0.30108613 0.45043465 0.3366016
0000f0 2c 75 ec bd a4 82 90 be 27 8d a3 be 57 7f 20 be
       -0.11545786 -0.2822467 -0.31943628 -0.15673576
000100 71 ad 99 3e 5d 29 34 be 57 2f bc bd 74 3d a1 be
       0.30015138 -0.17593904 -0.09188717 -0.31492198
000110 f5 4b ce 3e b1 55 57 be a0 1e 90 3e b7 97 d8 3e
       0.40292326 -0.21028782 0.28148365 0.4230325
000120 20 c2 31 be 71 b4 02 3f 32 d8 a2 be 70 68 b6 3e
       -0.17359209 0.5105658 -0.3180557 0.35626554
000130 2d a0 c4 3e 4c ed e1 3e 88 68 17 be cc 27 09 3e
       0.38403454 0.44126356 -0.1478597 0.13394088
000140 f6 f2 64 be 22 f1 3b 3f 6a 1c ab be bb cf 2b 3f
       -0.22358307 0.73414814 -0.33420116 0.67113847
000150 88 d1 9f 3e bc 98 c2 be ca 6a 84 be 50 03 8a be
       0.31214547 -0.38007152 -0.25862724 -0.26955652
000160 aa ef 22 3f cd 82 44 bc 7e ed 4e be aa 25 f3 be
       0.6364695 -0.011994076 -0.20207784 -0.47489673
000170 22 49 c2 bd bb ac 44 be 52 50 50 3e a6 3d a7 be
       -0.09486605 -0.19206516 0.2034314 -0.32664222
000180 27 42 34 be 19 22 e4 3e b6 29 99 be 6b d5 39 3f
       -0.1760336 0.44557264 -0.29914635 0.72591275
000190 b6 6b 48 bf 8b 5d 23 be 13 cd 00 bc a1 bc d2 be
       -0.78289354 -0.15953653 -0.0078613935 -0.41159537
0001a0 bf b1 bb bd c9 24 af be 82 ea 3a be 1b 1b cf 3d
       -0.09164762 -0.34207752 -0.1825352 0.10112592
0001b0 0e fd 8a be 28 37 fa 3e a4 77 da be 14 13 f9 3e
       -0.2714619 0.48870206 -0.42669404 0.48647368
0001c0 6a 3a 52 3e ef 01 18 bf 3e ef 8a be 1d be a4 be
       0.20530096 -0.5937795 -0.27135652 -0.32176295
0001d0 c9 7d f8 be b6 c6 98 be d1 9b 11 3f e7 5a 38 be
       -0.48533466 -0.29839104 0.5687838 -0.18003426
0001e0 4b 2d 91 3e 50 24 98 be 8e a2 0d 3f b8 90 7a be
       0.28354868 -0.29715204 0.55326164 -0.24469268
0001f0 62 13 ac 3e 60 04 18 bf b5 00 7e 3e 18 02 01 3f
       0.33608538 -0.59381676 0.24804957 0.5039382
000200 08 91 a4 bd 19 b4 06 3f bf af ec 3e f5 d7 ac 3e
       -0.08035475 0.5261856 0.46227834 0.33758512
000210 c5 50 e2 bd f6 d6 be 3e 1b 8f b5 3e eb 71 0b 3f
       -0.11050562 0.37273377 0.35460743 0.544707
000220 fc 78 36 3e 89 bd 0f 3f 43 02 a3 be ec 2e 1a be
       0.1781959 0.5614858 -0.31837663 -0.15056962
000230 a7 70 5e be 5d 40 d4 be 20 cb 00 3f 0b 06 6f be
       -0.21722661 -0.41455355 0.50309944 -0.23342149
000240 2e 50 2d 3e 89 bb ba be b2 1f ce bc 64 0d 28 be
       0.16925117 -0.36471203 -0.025161598 -0.16411358
000250 f9 58 d9 be 08 e7 dc 3e dc 28 b1 bd c1 b9 e0 3e
       -0.42450693 0.43145013 -0.086503714 0.4389172
000260 52 9d b9 be 0f af 1e 3f 75 07 18 bf 11 c1 77 be
       -0.36252838 0.6198587 -0.5938638 -0.24194743
000270 fd 80 b3 3e e8 d9 da 3e 60 a6 e0 bd 0c 8c 88 3e
       0.35059348 0.42744374 -0.109692335 0.26669347
000280 2f e5 be bc ea 57 3e 3e a7 be 21 be 34 7a cf be
       -0.023302643 0.18588224 -0.15795384 -0.4052292
000290 35 da ae 3e cc 2f 34 be e9 3b ba bd 1e 78 1e 3f
       0.34150854 -0.17596358 -0.09093458 0.61902034
0002a0 9a cf 9e 3e 50 44 03 3f 79 80 16 3f 55 5b be 3e
       0.31017762 0.5127611 0.58789784 0.37179056
0002b0 48 62 81 be 86 ea 08 3f 1c 9c a5 3e 4c a9 f8 3e
       -0.25270295 0.53482854 0.32345665 0.48566663
0002c0 6f a7 9f bd e7 24 6e 3e b2 83 82 be de d3 09 3f
       -0.07795607 0.23256265 -0.254911 0.5383891
0002d0 63 54 3c be 79 f6 01 bf 4e 5b 1c bd 3d f7 01 bf
       -0.18391566 -0.5076671 -0.038173012 -0.5076788
0002e0 88 f7 01 bf 2a 43 17 3e 1c 11 fd 3e c6 b5 2c be
       -0.5076833 0.14771715 0.49427116 -0.16866216
0002f0 f3 11 a0 bd 69 72 70 be 10 aa 8a 3d e6 65 97 be
       -0.078159235 -0.23481144 0.06770718 -0.2956993
000300 33 7b 0f 3f a5 17 04 3f 60 a7 e6 bd 69 b2 18 3f
       0.5604736 0.5159858 -0.11262393 0.5964723
000310 ca 9d c5 bd 92 be 94 3e 71 61 1d be 0b 29 15 3f
       -0.096492365 0.29051644 -0.15369202 0.5826575
000320 4f e3 af 3e c9 fd df 3e 74 2c b6 3e fe 6c 5d be
       0.3435311 0.4374831 0.3558079 -0.21623608
000330 f3 78 a9 3e ba 05 59 be 5f 6a 2d 3f 3c ef f8 bd
       0.3310009 -0.21193591 0.67740434 -0.12155005
000340 bd 6a f9 be 78 4b 3d be 64 f6 26 be a8 3e 88 be
       -0.48714247 -0.1848582 -0.16304928 -0.26610303
000350 45 c5 4d 3e 33 6b 46 be 66 36 73 3e f1 e4 ff 3d
       0.20094784 -0.19376831 0.2375122 0.12494839
000360 7b 3a c1 3e bc 67 7f 3d 76 59 89 be 08 0a 74 3d
       0.3773993 0.06235479 -0.26826066 0.05957988
000370 c3 13 10 be eb ac 3d 3f 79 06 7e be 71 66 9e be
       -0.14070038 0.74091977 -0.24807157 -0.30937532
000380 00 17 ca be 87 22 ab be fe c3 27 3e b2 03 8a 3e
       -0.39470673 -0.3342478 0.16383359 0.26955944
000390 49 13 28 be 24 a5 db 3e 71 e8 46 be fb ee 5c 3e
       -0.16413607 0.4289943 -0.19424607 0.21575539
0003a0 52 c8 3c 3e d5 a6 5f 3f 71 d9 04 3f 72 6f 4b 3e
       0.18435791 0.8736394 0.5189429 0.19866732
0003b0 68 d4 d4 3e 03 9d fb 3d 2e 6f 8d 3d 95 33 58 3e
       0.41568303 0.12285807 0.069059715 0.21113427
0003c0 93 24 1b 3d e4 14 8e 3d a9 d1 18 3f 77 a3 fb be
       0.037876677 0.06937578 0.59694916 -0.4914815
0003d0 92 ac 31 3e 2e 63 a6 be 8d 93 2f 3f aa 8a 97 3e
       0.17350987 -0.32497543 0.6858452 0.2959798
0003e0 cb e5 b2 3e fa e2 f8 be 5e bd 83 be 3d 99 9e 3e
       0.34940943 -0.4861067 -0.25730413 0.30976287
0003f0 60 a1 b4 3e 60 08 c4 be 6d 66 29 be 01 c9 9b be
       0.3527937 -0.3828764 -0.16542979 -0.3042679

l1.bias f4 [8]
000000 91 88 14 3f e8 94 3a 3f 1a 02 18 3f e4 f4 01 3f
       0.58020884 0.7288346 0.59378207 0.507643
000010 1d 35 52 3f d4 b9 14 3f f7 32 6d 3f 13 6a b5 3e
       0.82112294 0.5809605 0.9265589 0.3543249

l2.weight f4 [8, 8]
000000 a3 16 86 bf c4 30 37 bf a2 89 bb be 1a af 1a 3f
       -1.0475658 -0.71558785 -0.36628443 0.60423434
000010 33 6d ab 3f b4 51 8a 3f d6 e1 37 be 7e 03 e3 3e
       1.33927 1.0806184 -0.17957243 0.44338602
000020 10 82 82 3d 2f f2 9e 3f 04 63 af 3f 94 50 0c bf
       0.06372464 1.2417659 1.3702092 -0.5481045
000030 e8 77 eb be 2d b4 7c 3f 62 c7 7e 3e 96 02 2c bf
       -0.4598992 0.98712426 0.24880746 -0.67191446
000040 b3 8e 9a 3f 5e a5 90 bf 3d 01 1c bf 2c 20 aa 3b
       1.2074798 -1.1300466 -0.6093939 0.0051918235
000050 47 40 24 3e cd ff 8a bf c3 72 61 3f 8d 9f 64 3f
       0.16040145 -1.0859314 0.8806574 0.89305955
000060 93 f6 93 3f fc cd a0 3e 24 05 45 be 1e 8a e6 be
       1.1559623 0.31407154 -0.19240242 -0.4502725
000070 ef e5 88 3f 8a c9 a6 be a6 8d 56 3f f5 68 01 bf
       1.069517 -0.32575637 0.8380989 -0.50550777
000080 2b a2 0d be d7 94 06 3f a8 a9 15 bf 15 5a 8b 3f
       -0.13831393 0.5257086 -0.58462 1.0886866
000090 8a 56 ac be ca 76 e0 3e e8 a9 a1 3e 30 63 90 3f
       -0.33659774 0.4384063 0.3157494 1.128027
0000a0 ee 53 ea 3d 05 80 4e 3e 0f ca 34 bf 0c a0 5e 3f
       0.114417896 0.20166023 -0.70620817 0.8696296
0000b0 86 57 82 be 2a ee 0f bf 66 ca 0a 3f 78 64 f6 3e
       -0.254574 -0.56222785 0.54215086 0.48123527
0000c0 80 37 61 3f e2 02 4f 3f 53 d8 07 bf 10 0d 20 be
       0.8797531 0.80863774 -0.5306446 -0.15629983
0000d0 0e 89 84 3f d6 f9 36 bf 8c 09 b3 3f e2 06 f7 3d
       1.0354326 -0.7147497 1.3987288 0.1206186
0000e0 2c ba a1 3e 86 39 37 3f b4 2b 6e 3f d7 a7 3a bf
       0.3158735 0.7157215 0.93035436 -0.72912353
0000f0 63 d9 13 3f e7 48 18 3f 05 43 cc 3e f9 09 4e bf
       0.5775358 0.5948624 0.39894882 -0.8048397

l2.bias f4 [8]
000000 a1 b0 ab 3e ac 96 42 3f ee 2d 83 3e b9 bb aa 3e
       0.33533195 0.7601116 0.2562098 0.33346346
000010 35 1c 48 3e 3f 51 a9 3e 87 3b 25 3f 4e 05 f9 3e
       0.1954201 0.33069798 0.64543957 0.4863686

l3.weight f4 [7, 8]
000000 b9 ae 6d 3f fa 3e 00 bf 3e 3c dc be eb e8 ae bf
       0.9284473 -0.50096095 -0.4301471 -1.3664831
000010 80 ee 28 3f b7 72 06 bf 1a ee 84 bf 73 0b 6f bf
       0.6598892 -0.5251879 -1.0385163 -0.93376845
000020 31 80 9a bf 4a f8 74 3f 13 eb 00 bf 23 7b c5 bf
       -1.2070371 0.9569136 -0.50358695 -1.5428203
000030 66 e3 60 be 8f ae c6 be e5 66 46 bf 8e 30 00 3f
       -0.21961746 -0.38805053 -0.77500755 0.5007409
000040 a0 aa 52 3e 20 14 af be 55 64 7a bf 32 44 eb bd
       0.20572901 -0.34195042 -0.97809345 -0.114876166
000050 b7 3f b2 3e ba 89 54 bd f5 dc fd 3e cd 68 da be
       0.34814236 -0.05188916 0.4958264 -0.42658082
000060 2c ff bd bf 41 d4 eb 3e c8 4b 13 bf 43 40 14 3f
       -1.4843497 0.46060374 -0.5753751 0.57910556
000070 d4 eb d7 be bd 88 c4 bf 56 ab ca 3e eb a8 b7 3d
       -0.4217211 -1.5354229 0.39583844 0.089677654
000080 24 32 1e 3f 81 a1 74 3e 66 bb 8d be 3b dd 71 bf
       0.6179526 0.23889734 -0.27682036 -0.94478196
000090 6e 0d 53 bf be 8e 4e bf 75 8b 4d bf b2 98 07 3f
       -0.8244237 -0.8068656 -0.8029092 0.5296737
0000a0 e2 44 84 bf f7 3b 2c bf d7 c9 17 3f c8 5a 73 bf
       -1.0333521 -0.67279 0.5929236 -0.95060396
0000b0 bd 50 35 3f 44 9e 75 3f cb 91 38 bc af 1f 5d bf
       0.7082632 0.9594462 -0.0112652285 -0.8637647
0000c0 e2 65 55 bf cf 0e 8c bf 92 4a 4f 3f ad 42 34 3f
       -0.83358586 -1.0942019 0.8097316 0.7041424
0000d0 29 b3 2b bf 00 db 60 bf 3d 67 00 3f 19 fc 82 be
       -0.6707025 -0.8783417 0.5015753 -0.2558296

l3.bias f4 [7]
000000 cd 95 a6 3d d9 be 25 be 4e 46 29 3e c6 a0 be 3e
       0.08134041 -0.16186084 0.16530725 0.37232035
000010 60 db 17 be 6e e1 38 3e ae 93 42 3d
       -0.14829779 0.18054745 0.04750412
